…
        "colab": {
          "base_uri": "https://localhost:8080/",
          "height": 570
        }
      },
      "source": [
        "model.summary()"
      ],
      "execution_count": 37,
      "outputs": [
        {
          "output_type": "stream",
          "text": [
            "Model: \"sequential_12\"\n",
            "_________________________________________________________________\n",
            "Layer (type)                 Output Shape              Param #   \n",
            "=================================================================\n",
            "conv2d_42 (Conv2D)           (None, 26, 26, 32)        320       \n",
            "_________________________________________________________________\n",
            "conv2d_43 (Conv2D)           (None, 24, 24, 64)        18496     \n",
            "_________________________________________________________________\n",
            "max_pooling2d_9 (MaxPooling2 (None, 12, 12, 64)        0         \n",
            "_________________________________________________________________\n",
            "dropout_3 (Dropout)          (None, 12, 12, 64)        0         \n",
            "_________________________________________________________________\n",
            "conv2d_44 (Conv2D)           (None, 10, 10, 32)        18464     \n",
            "_________________________________________________________________\n",
            "conv2d_45 (Conv2D)           (None, 8, 8, 64)          18496     \n",
            "_________________________________________________________________\n",
            "max_pooling2d_10 (MaxPooling (None, 4, 4, 64)          0         \n",
            "_________________________________________________________________\n",
            "dropout_4 (Dropout)          (None, 4, 4, 64)          0         \n",
            "_________________________________________________________________\n",
            "conv2d_46 (Conv2D)           (None, 4, 4, 10)          650       \n",
            "_________________________________________________________________\n",
            "conv2d_47 (Conv2D)           (None, 1, 1, 10)          1610      \n",
            "_________________________________________________________________\n",
            "flatten_6 (Flatten)          (None, 10)                0         \n",
            "_________________________________________________________________\n",
            "activation_6 (Activation)    (None, 10)                0         \n",
            "=================================================================\n",
            "Total params: 58,036\n",
            "Trainable params: 58,036\n",
            "Non-trainable params: 0\n",
            "_________________________________________________________________\n"
          ],
          "name": "stdout"
        }
      ]
    },
    {
      "cell_type": "code",
      "metadata": {
…
